Model selected: m3
Using Model M3
_________________________________________________________________
Layer (type)                 Output Shape              Param #   
=================================================================
conv1d_1 (Conv1D)            (None, 8000, 256)         20736     
_________________________________________________________________
batch_normalization_1 (Batch (None, 8000, 256)         1024      
_________________________________________________________________
activation_1 (Activation)    (None, 8000, 256)         0         
_________________________________________________________________
max_pooling1d_1 (MaxPooling1 (None, 2000, 256)         0         
_________________________________________________________________
conv1d_2 (Conv1D)            (None, 2000, 256)         196864    
_________________________________________________________________
batch_normalization_2 (Batch (None, 2000, 256)         1024      
_________________________________________________________________
activation_2 (Activation)    (None, 2000, 256)         0         
_________________________________________________________________
max_pooling1d_2 (MaxPooling1 (None, 500, 256)          0         
_________________________________________________________________
lambda_1 (Lambda)            (None, 256)               0         
_________________________________________________________________
dense_1 (Dense)              (None, 10)                2570      
=================================================================
Total params: 222,218.0
Trainable params: 221,194.0
Non-trainable params: 1,024.0
_________________________________________________________________
None
training files = 7895
testing files = 837
x_tr.shape = (7895, 32000, 1)
y_tr.shape = (7895, 10)
x_te.shape = (837, 32000, 1)
y_te.shape = (837, 10)
Train on 7895 samples, validate on 837 samples
…
