Model selected: m34
____________________________________________________________________________________________________
Layer (type)                     Output Shape          Param #     Connected to                     
====================================================================================================
input_1 (InputLayer)             (None, 32000, 1)      0                                            
____________________________________________________________________________________________________
conv1d_1 (Conv1D)                (None, 8000, 48)      3888                                         
____________________________________________________________________________________________________
batch_normalization_1 (BatchNorm (None, 8000, 48)      192                                          
____________________________________________________________________________________________________
activation_1 (Activation)        (None, 8000, 48)      0                                            
____________________________________________________________________________________________________
max_pooling1d_1 (MaxPooling1D)   (None, 2000, 48)      0                                            
____________________________________________________________________________________________________
res10_branch2a (Conv1D)          (None, 2000, 48)      6960                                         
____________________________________________________________________________________________________
bn10_branch2a (BatchNormalizatio (None, 2000, 48)      192                                          
____________________________________________________________________________________________________
activation_2 (Activation)        (None, 2000, 48)      0                                            
____________________________________________________________________________________________________
res10_branch2b (Conv1D)          (None, 2000, 48)      6960                                         
____________________________________________________________________________________________________
bn10_branch2b (BatchNormalizatio (None, 2000, 48)      192                                          
____________________________________________________________________________________________________
add_1 (Add)                      (None, 2000, 48)      0                                            
____________________________________________________________________________________________________
batch_normalization_2 (BatchNorm (None, 2000, 48)      192                                          
____________________________________________________________________________________________________
activation_3 (Activation)        (None, 2000, 48)      0                                            
____________________________________________________________________________________________________
res11_branch2a (Conv1D)          (None, 2000, 48)      6960                                         
____________________________________________________________________________________________________
bn11_branch2a (BatchNormalizatio (None, 2000, 48)      192                                          
____________________________________________________________________________________________________
activation_4 (Activation)        (None, 2000, 48)      0                                            
____________________________________________________________________________________________________
res11_branch2b (Conv1D)          (None, 2000, 48)      6960                                         
____________________________________________________________________________________________________
bn11_branch2b (BatchNormalizatio (None, 2000, 48)      192                                          
____________________________________________________________________________________________________
add_2 (Add)                      (None, 2000, 48)      0                                            
____________________________________________________________________________________________________
batch_normalization_3 (BatchNorm (None, 2000, 48)      192                                          
____________________________________________________________________________________________________
activation_5 (Activation)        (None, 2000, 48)      0                                            
____________________________________________________________________________________________________
res12_branch2a (Conv1D)          (None, 2000, 48)      6960                                         
____________________________________________________________________________________________________
bn12_branch2a (BatchNormalizatio (None, 2000, 48)      192                                          
____________________________________________________________________________________________________
activation_6 (Activation)        (None, 2000, 48)      0                                            
____________________________________________________________________________________________________
res12_branch2b (Conv1D)          (None, 2000, 48)      6960                                         
____________________________________________________________________________________________________
bn12_branch2b (BatchNormalizatio (None, 2000, 48)      192                                          
____________________________________________________________________________________________________
add_3 (Add)                      (None, 2000, 48)      0                                            
____________________________________________________________________________________________________
batch_normalization_4 (BatchNorm (None, 2000, 48)      192                                          
____________________________________________________________________________________________________
activation_7 (Activation)        (None, 2000, 48)      0                                            
____________________________________________________________________________________________________
max_pooling1d_2 (MaxPooling1D)   (None, 500, 48)       0                                            
____________________________________________________________________________________________________
res20_branch2a (Conv1D)          (None, 500, 96)       13920                                        
____________________________________________________________________________________________________
bn20_branch2a (BatchNormalizatio (None, 500, 96)       384                                          
____________________________________________________________________________________________________
activation_8 (Activation)        (None, 500, 96)       0                                            
____________________________________________________________________________________________________
res20_branch2b (Conv1D)          (None, 500, 96)       27744                                        
____________________________________________________________________________________________________
bn20_branch2b (BatchNormalizatio (None, 500, 96)       384                                          
____________________________________________________________________________________________________
lambda_1 (Lambda)                (None, 500, 96)       0                                            
____________________________________________________________________________________________________
add_4 (Add)                      (None, 500, 96)       0                                            
____________________________________________________________________________________________________
batch_normalization_5 (BatchNorm (None, 500, 96)       384                                          
____________________________________________________________________________________________________
activation_9 (Activation)        (None, 500, 96)       0                                            
____________________________________________________________________________________________________
res21_branch2a (Conv1D)          (None, 500, 96)       27744                                        
____________________________________________________________________________________________________
bn21_branch2a (BatchNormalizatio (None, 500, 96)       384                                          
____________________________________________________________________________________________________
activation_10 (Activation)       (None, 500, 96)       0                                            
____________________________________________________________________________________________________
res21_branch2b (Conv1D)          (None, 500, 96)       27744                                        
____________________________________________________________________________________________________
bn21_branch2b (BatchNormalizatio (None, 500, 96)       384                                          
____________________________________________________________________________________________________
add_5 (Add)                      (None, 500, 96)       0                                            
____________________________________________________________________________________________________
batch_normalization_6 (BatchNorm (None, 500, 96)       384                                          
____________________________________________________________________________________________________
activation_11 (Activation)       (None, 500, 96)       0                                            
____________________________________________________________________________________________________
res22_branch2a (Conv1D)          (None, 500, 96)       27744                                        
____________________________________________________________________________________________________
bn22_branch2a (BatchNormalizatio (None, 500, 96)       384                                          
____________________________________________________________________________________________________
activation_12 (Activation)       (None, 500, 96)       0                                            
____________________________________________________________________________________________________
res22_branch2b (Conv1D)          (None, 500, 96)       27744                                        
____________________________________________________________________________________________________
bn22_branch2b (BatchNormalizatio (None, 500, 96)       384                                          
____________________________________________________________________________________________________
add_6 (Add)                      (None, 500, 96)       0                                            
____________________________________________________________________________________________________
batch_normalization_7 (BatchNorm (None, 500, 96)       384                                          
____________________________________________________________________________________________________
activation_13 (Activation)       (None, 500, 96)       0                                            
____________________________________________________________________________________________________
res23_branch2a (Conv1D)          (None, 500, 96)       27744                                        
____________________________________________________________________________________________________
bn23_branch2a (BatchNormalizatio (None, 500, 96)       384                                          
____________________________________________________________________________________________________
activation_14 (Activation)       (None, 500, 96)       0                                            
____________________________________________________________________________________________________
res23_branch2b (Conv1D)          (None, 500, 96)       27744                                        
____________________________________________________________________________________________________
bn23_branch2b (BatchNormalizatio (None, 500, 96)       384                                          
____________________________________________________________________________________________________
add_7 (Add)                      (None, 500, 96)       0                                            
____________________________________________________________________________________________________
batch_normalization_8 (BatchNorm (None, 500, 96)       384                                          
____________________________________________________________________________________________________
activation_15 (Activation)       (None, 500, 96)       0                                            
____________________________________________________________________________________________________
max_pooling1d_3 (MaxPooling1D)   (None, 125, 96)       0                                            
____________________________________________________________________________________________________
res30_branch2a (Conv1D)          (None, 125, 192)      55488                                        
____________________________________________________________________________________________________
bn30_branch2a (BatchNormalizatio (None, 125, 192)      768                                          
____________________________________________________________________________________________________
activation_16 (Activation)       (None, 125, 192)      0                                            
____________________________________________________________________________________________________
res30_branch2b (Conv1D)          (None, 125, 192)      110784                                       
____________________________________________________________________________________________________
bn30_branch2b (BatchNormalizatio (None, 125, 192)      768                                          
____________________________________________________________________________________________________
lambda_2 (Lambda)                (None, 125, 192)      0                                            
____________________________________________________________________________________________________
add_8 (Add)                      (None, 125, 192)      0                                            
____________________________________________________________________________________________________
batch_normalization_9 (BatchNorm (None, 125, 192)      768                                          
____________________________________________________________________________________________________
activation_17 (Activation)       (None, 125, 192)      0                                            
____________________________________________________________________________________________________
res31_branch2a (Conv1D)          (None, 125, 192)      110784                                       
____________________________________________________________________________________________________
bn31_branch2a (BatchNormalizatio (None, 125, 192)      768                                          
____________________________________________________________________________________________________
activation_18 (Activation)       (None, 125, 192)      0                                            
____________________________________________________________________________________________________
res31_branch2b (Conv1D)          (None, 125, 192)      110784                                       
____________________________________________________________________________________________________
bn31_branch2b (BatchNormalizatio (None, 125, 192)      768                                          
____________________________________________________________________________________________________
add_9 (Add)                      (None, 125, 192)      0                                            
____________________________________________________________________________________________________
batch_normalization_10 (BatchNor (None, 125, 192)      768                                          
____________________________________________________________________________________________________
activation_19 (Activation)       (None, 125, 192)      0                                            
____________________________________________________________________________________________________
res32_branch2a (Conv1D)          (None, 125, 192)      110784                                       
____________________________________________________________________________________________________
bn32_branch2a (BatchNormalizatio (None, 125, 192)      768                                          
____________________________________________________________________________________________________
activation_20 (Activation)       (None, 125, 192)      0                                            
____________________________________________________________________________________________________
res32_branch2b (Conv1D)          (None, 125, 192)      110784                                       
____________________________________________________________________________________________________
bn32_branch2b (BatchNormalizatio (None, 125, 192)      768                                          
____________________________________________________________________________________________________
add_10 (Add)                     (None, 125, 192)      0                                            
____________________________________________________________________________________________________
batch_normalization_11 (BatchNor (None, 125, 192)      768                                          
____________________________________________________________________________________________________
activation_21 (Activation)       (None, 125, 192)      0                                            
____________________________________________________________________________________________________
res33_branch2a (Conv1D)          (None, 125, 192)      110784                                       
____________________________________________________________________________________________________
bn33_branch2a (BatchNormalizatio (None, 125, 192)      768                                          
____________________________________________________________________________________________________
activation_22 (Activation)       (None, 125, 192)      0                                            
____________________________________________________________________________________________________
res33_branch2b (Conv1D)          (None, 125, 192)      110784                                       
____________________________________________________________________________________________________
bn33_branch2b (BatchNormalizatio (None, 125, 192)      768                                          
____________________________________________________________________________________________________
add_11 (Add)                     (None, 125, 192)      0                                            
____________________________________________________________________________________________________
batch_normalization_12 (BatchNor (None, 125, 192)      768                                          
____________________________________________________________________________________________________
activation_23 (Activation)       (None, 125, 192)      0                                            
____________________________________________________________________________________________________
res34_branch2a (Conv1D)          (None, 125, 192)      110784                                       
____________________________________________________________________________________________________
bn34_branch2a (BatchNormalizatio (None, 125, 192)      768                                          
____________________________________________________________________________________________________
activation_24 (Activation)       (None, 125, 192)      0                                            
____________________________________________________________________________________________________
res34_branch2b (Conv1D)          (None, 125, 192)      110784                                       
____________________________________________________________________________________________________
bn34_branch2b (BatchNormalizatio (None, 125, 192)      768                                          
____________________________________________________________________________________________________
add_12 (Add)                     (None, 125, 192)      0                                            
____________________________________________________________________________________________________
batch_normalization_13 (BatchNor (None, 125, 192)      768                                          
____________________________________________________________________________________________________
activation_25 (Activation)       (None, 125, 192)      0                                            
____________________________________________________________________________________________________
res35_branch2a (Conv1D)          (None, 125, 192)      110784                                       
____________________________________________________________________________________________________
bn35_branch2a (BatchNormalizatio (None, 125, 192)      768                                          
____________________________________________________________________________________________________
activation_26 (Activation)       (None, 125, 192)      0                                            
____________________________________________________________________________________________________
res35_branch2b (Conv1D)          (None, 125, 192)      110784                                       
____________________________________________________________________________________________________
bn35_branch2b (BatchNormalizatio (None, 125, 192)      768                                          
____________________________________________________________________________________________________
add_13 (Add)                     (None, 125, 192)      0                                            
____________________________________________________________________________________________________
batch_normalization_14 (BatchNor (None, 125, 192)      768                                          
____________________________________________________________________________________________________
activation_27 (Activation)       (None, 125, 192)      0                                            
____________________________________________________________________________________________________
max_pooling1d_4 (MaxPooling1D)   (None, 31, 192)       0                                            
____________________________________________________________________________________________________
res40_branch2a (Conv1D)          (None, 31, 384)       221568                                       
____________________________________________________________________________________________________
bn40_branch2a (BatchNormalizatio (None, 31, 384)       1536                                         
____________________________________________________________________________________________________
activation_28 (Activation)       (None, 31, 384)       0                                            
____________________________________________________________________________________________________
res40_branch2b (Conv1D)          (None, 31, 384)       442752                                       
____________________________________________________________________________________________________
bn40_branch2b (BatchNormalizatio (None, 31, 384)       1536                                         
____________________________________________________________________________________________________
lambda_3 (Lambda)                (None, 31, 384)       0                                            
____________________________________________________________________________________________________
add_14 (Add)                     (None, 31, 384)       0                                            
____________________________________________________________________________________________________
batch_normalization_15 (BatchNor (None, 31, 384)       1536                                         
____________________________________________________________________________________________________
activation_29 (Activation)       (None, 31, 384)       0                                            
____________________________________________________________________________________________________
res41_branch2a (Conv1D)          (None, 31, 384)       442752                                       
____________________________________________________________________________________________________
bn41_branch2a (BatchNormalizatio (None, 31, 384)       1536                                         
____________________________________________________________________________________________________
activation_30 (Activation)       (None, 31, 384)       0                                            
____________________________________________________________________________________________________
res41_branch2b (Conv1D)          (None, 31, 384)       442752                                       
____________________________________________________________________________________________________
bn41_branch2b (BatchNormalizatio (None, 31, 384)       1536                                         
____________________________________________________________________________________________________
add_15 (Add)                     (None, 31, 384)       0                                            
____________________________________________________________________________________________________
batch_normalization_16 (BatchNor (None, 31, 384)       1536                                         
____________________________________________________________________________________________________
activation_31 (Activation)       (None, 31, 384)       0                                            
____________________________________________________________________________________________________
res42_branch2a (Conv1D)          (None, 31, 384)       442752                                       
____________________________________________________________________________________________________
bn42_branch2a (BatchNormalizatio (None, 31, 384)       1536                                         
____________________________________________________________________________________________________
activation_32 (Activation)       (None, 31, 384)       0                                            
____________________________________________________________________________________________________
res42_branch2b (Conv1D)          (None, 31, 384)       442752                                       
____________________________________________________________________________________________________
bn42_branch2b (BatchNormalizatio (None, 31, 384)       1536                                         
____________________________________________________________________________________________________
add_16 (Add)                     (None, 31, 384)       0                                            
____________________________________________________________________________________________________
batch_normalization_17 (BatchNor (None, 31, 384)       1536                                         
____________________________________________________________________________________________________
activation_33 (Activation)       (None, 31, 384)       0                                            
____________________________________________________________________________________________________
global_average_pooling1d_1 (Glob (None, 384)           0                                            
____________________________________________________________________________________________________
dense_1 (Dense)                  (None, 10)            3850                                         
====================================================================================================
Total params: 4,001,242.0
Trainable params: 3,984,154.0
Non-trainable params: 17,088.0
____________________________________________________________________________________________________
None
training files = 7895
testing files = 837
x_tr.shape = (7895, 32000, 1)
…
