Model selected: m5
Using Model M5
_________________________________________________________________
Layer (type)                 Output Shape              Param #   
=================================================================
conv1d_1 (Conv1D)            (None, 8000, 128)         10368     
_________________________________________________________________
batch_normalization_1 (Batch (None, 8000, 128)         512       
_________________________________________________________________
activation_1 (Activation)    (None, 8000, 128)         0         
_________________________________________________________________
max_pooling1d_1 (MaxPooling1 (None, 2000, 128)         0         
_________________________________________________________________
conv1d_2 (Conv1D)            (None, 2000, 128)         49280     
_________________________________________________________________
batch_normalization_2 (Batch (None, 2000, 128)         512       
_________________________________________________________________
activation_2 (Activation)    (None, 2000, 128)         0         
_________________________________________________________________
max_pooling1d_2 (MaxPooling1 (None, 500, 128)          0         
_________________________________________________________________
conv1d_3 (Conv1D)            (None, 500, 256)          98560     
_________________________________________________________________
batch_normalization_3 (Batch (None, 500, 256)          1024      
_________________________________________________________________
activation_3 (Activation)    (None, 500, 256)          0         
_________________________________________________________________
max_pooling1d_3 (MaxPooling1 (None, 125, 256)          0         
_________________________________________________________________
conv1d_4 (Conv1D)            (None, 125, 512)          393728    
_________________________________________________________________
batch_normalization_4 (Batch (None, 125, 512)          2048      
_________________________________________________________________
activation_4 (Activation)    (None, 125, 512)          0         
_________________________________________________________________
max_pooling1d_4 (MaxPooling1 (None, 31, 512)           0         
_________________________________________________________________
lambda_1 (Lambda)            (None, 512)               0         
_________________________________________________________________
dense_1 (Dense)              (None, 10)                5130      
=================================================================
Total params: 561,162.0
Trainable params: 559,114.0
Non-trainable params: 2,048.0
_________________________________________________________________
None
training files = 7895
testing files = 837
x_tr.shape = (7895, 32000, 1)
y_tr.shape = (7895, 10)
x_te.shape = (837, 32000, 1)
y_te.shape = (837, 10)
Train on 7895 samples, validate on 837 samples
…
